…
2021-01-10 19:24:19.017405: I tensorflow/stream_executor/platform/default/dso_loader.cc:44] Successfully opened dynamic library libcudnn.so.7
2021-01-10 19:24:24.644451: I tensorflow/core/profiler/lib/profiler_session.cc:159] Profiler session started.
Data Split done.
Vocabulary Length: 52025
Tokenizer vocab length: 45403
X_train.shape: (79998, 60)
Embedding Matrix Shape: (45403, 100)
Model: "sequential"
_________________________________________________________________
Layer (type)                 Output Shape              Param #   
=================================================================
embedding (Embedding)        (None, 60, 100)           4540300   
_________________________________________________________________
bidirectional (Bidirectional (None, 60, 200)           160800    
_________________________________________________________________
bidirectional_1 (Bidirection (None, 60, 200)           240800    
_________________________________________________________________
conv1d (Conv1D)              (None, 56, 100)           100100    
_________________________________________________________________
global_max_pooling1d (Global (None, 100)               0         
_________________________________________________________________
dense (Dense)                (None, 16)                1616      
_________________________________________________________________
dense_1 (Dense)              (None, 1)                 17        
=================================================================
Total params: 5,043,633
Trainable params: 503,333
Non-trainable params: 4,540,300
_________________________________________________________________
None
Epoch 1/100
 1/18 [>.............................] - ETA: 0s - loss: 0.7094 - accuracy: 0.44432021-01-10 19:24:24.896942: I tensorflow/core/profiler/internal/gpu/cupti_tracer.cc:1479] CUPTI activity buffer flushed
…
